…
2025-02-14 02:04:46,435 - Namespace(data_dir='./data/', output_dir='output/', data_name='ML-1M', do_eval=False, load_model=None, train_name='Bsarec_Wavelet_ML-1M', num_items=10, num_users=6041, lr=0.0005, batch_size=256, epochs=200, no_cuda=False, log_freq=1, patience=10, num_workers=4, seed=42, weight_decay=0.0, adam_beta1=0.9, adam_beta2=0.999, gpu_id='0', variance=5, model_type='bsarec_wavelet', max_seq_length=50, hidden_size=64, num_hidden_layers=2, hidden_act='gelu', num_attention_heads=4, attention_probs_dropout_prob=0.5, hidden_dropout_prob=0.5, initializer_range=0.02, filter_type='morlet', pass_weight=1.0, filter_length=8, sigma=0.5, alpha=0.3, cuda_condition=True, data_file='./data/ML-1M.txt', item_size=3417, checkpoint_path='output/Bsarec_Wavelet_ML-1M.pt', same_target_path='./data/ML-1M_same_target.npy')
2025-02-14 02:04:46,452 - BSA_WaveRecModel(
  (item_embeddings): Embedding(3417, 64, padding_idx=0)
  (position_embeddings): Embedding(50, 64)
  (LayerNorm): LayerNorm()
  (dropout): Dropout(p=0.5, inplace=False)
  (item_encoder): BSARecEncoder(
    (blocks): ModuleList(
      (0-1): 2 x BSARecBlock(
        (layer): BSARecLayer(
          (attention_layer): MultiHeadAttention(
            (query): Linear(in_features=64, out_features=64, bias=True)
            (key): Linear(in_features=64, out_features=64, bias=True)
            (value): Linear(in_features=64, out_features=64, bias=True)
            (softmax): Softmax(dim=-1)
            (attn_dropout): Dropout(p=0.5, inplace=False)
            (dense): Linear(in_features=64, out_features=64, bias=True)
            (LayerNorm): LayerNorm((64,), eps=1e-12, elementwise_affine=True)
            (out_dropout): Dropout(p=0.5, inplace=False)
          )
          (wavelet_layer): WaveletFilterLayer(
            (out_dropout): Dropout(p=0.5, inplace=False)
            (LayerNorm): LayerNorm()
          )
        )
        (feed_forward): FeedForward(
          (dense_1): Linear(in_features=64, out_features=256, bias=True)
          (dense_2): Linear(in_features=256, out_features=64, bias=True)
          (LayerNorm): LayerNorm()
          (dropout): Dropout(p=0.5, inplace=False)
        )
      )
    )
  )
)
2025-02-14 02:04:47,873 - Total Parameters: 322368
2025-02-14 02:05:21,698 - {'epoch': 0, 'rec_loss': '7.3340'}
2025-02-14 02:05:23,787 - {'Epoch': 0, 'HR@1': '0.0175', 'HR@5': '0.0528', 'NDCG@5': '0.0356', 'HR@10': '0.0863', 'NDCG@10': '0.0464'}
2025-02-14 02:05:23,788 - Validation score increased.  Saving model ...
…
