…
ay=0.0, adam_beta1=0.9, adam_beta2=0.999, gpu_id='0', variance=5, model_type='bsarec_wavelet', max_seq_length=50, hidden_size=64, num_hidden_layers=2, hidden_act='gelu', num_attention_heads=4, attention_probs_dropout_prob=0.5, hidden_dropout_prob=0.5, initializer_range=0.02, filter_type='meyer', pass_weight=1.0, filter_length=16, sigma=1.0, alpha=0.3, cuda_condition=True, data_file='./data/Toys_and_Games.txt', item_size=11925, checkpoint_path='output/Bsarec_Wavelet_Toys.pt', same_target_path='./data/Toys_and_Games_same_target.npy')
2025-02-14 04:33:47,078 - BSA_WaveRecModel(
  (item_embeddings): Embedding(11925, 64, padding_idx=0)
  (position_embeddings): Embedding(50, 64)
  (LayerNorm): LayerNorm()
  (dropout): Dropout(p=0.5, inplace=False)
  (item_encoder): BSARecEncoder(
    (blocks): ModuleList(
      (0-1): 2 x BSARecBlock(
        (layer): BSARecLayer(
          (attention_layer): MultiHeadAttention(
            (query): Linear(in_features=64, out_features=64, bias=True)
            (key): Linear(in_features=64, out_features=64, bias=True)
            (value): Linear(in_features=64, out_features=64, bias=True)
            (softmax): Softmax(dim=-1)
            (attn_dropout): Dropout(p=0.5, inplace=False)
            (dense): Linear(in_features=64, out_features=64, bias=True)
            (LayerNorm): LayerNorm((64,), eps=1e-12, elementwise_affine=True)
            (out_dropout): Dropout(p=0.5, inplace=False)
          )
          (wavelet_layer): WaveletFilterLayer(
            (out_dropout): Dropout(p=0.5, inplace=False)
            (LayerNorm): LayerNorm()
          )
        )
        (feed_forward): FeedForward(
          (dense_1): Linear(in_features=64, out_features=256, bias=True)
          (dense_2): Linear(in_features=256, out_features=64, bias=True)
          (LayerNorm): LayerNorm()
          (dropout): Dropout(p=0.5, inplace=False)
        )
      )
    )
  )
)
2025-02-14 04:33:48,381 - Total Parameters: 866880
2025-02-14 04:34:05,235 - {'epoch': 0, 'rec_loss': '9.0728'}
2025-02-14 04:34:11,964 - {'Epoch': 0, 'HR@1': '0.0030', 'HR@5': '0.0081', 'NDCG@5': '0.0054', 'HR@10': '0.0133', 'NDCG@10': '0.0071'}
2025-02-14 04:34:11,968 - Validation score increased.  Saving model ...
…
